diff_sacdiff_sacckpt.pth (torch, 913426 bytes, 50 tensors)

_actor.betas f4 [100]
000000 17 b7 d1 38 e4 d0 9d 39 01 9a 03 3a 91 4b 38 3a
       1e-04 0.0003010101 0.0005020202 0.0007030303
000010 20 fd 6c 3a 58 d7 90 3a 1f 30 ab 3a e7 88 c5 3a
       0.0009040404 0.0011050506 0.0013060606 0.0015070707
000020 ae e1 df 3a 76 3a fa 3a 9f 49 0a 3b 03 76 17 3b
       0.0017080808 0.0019090909 0.002110101 0.0023111112
000030 66 a2 24 3b ca ce 31 3b 2e fb 3e 3b 92 27 4c 3b
       0.002512121 0.0027131313 0.0029141414 0.0031151515
000040 f6 53 59 3b 59 80 66 3b bd ac 73 3b 91 6c 80 3b
       0.0033161617 0.0035171716 0.0037181817 0.003919192
000050 c2 02 87 3b f4 98 8d 3b 26 2f 94 3b 58 c5 9a 3b
       0.004120202 0.004321212 0.004522222 0.0047232322
000060 8a 5b a1 3b bc f1 a7 3b ee 87 ae 3b 20 1e b5 3b
       0.0049242424 0.0051252525 0.0053262627 0.005527273
000070 52 b4 bb 3b 84 4a c2 3b b6 e0 c8 3b e7 76 cf 3b
       0.005728283 0.005929293 0.0061303033 0.006331313
000080 19 0d d6 3b 4b a3 dc 3b 7d 39 e3 3b af cf e9 3b
       0.006532323 0.006733333 0.0069343434 0.0071353535
000090 e1 65 f0 3b 13 fc f6 3b 45 92 fd 3b 3b 14 02 3c
       0.0073363637 0.007537374 0.007738384 0.007939394
0000a0 54 5f 05 3c 6d aa 08 3c 86 f5 0b 3c 9f 40 0f 3c
       0.008140404 0.008341414 0.008542424 0.008743434
0000b0 b8 8b 12 3c d1 d6 15 3c ea 21 19 3c 03 6d 1c 3c
       0.008944444 0.0091454545 0.009346465 0.009547475
0000c0 1c b8 1f 3c 35 03 23 3c 4e 4e 26 3c 67 99 29 3c
       0.009748485 0.009949495 0.010150505 0.010351515
0000d0 80 e4 2c 3c 99 2f 30 3c b2 7a 33 3c cb c5 36 3c
       0.0105525255 0.010753536 0.010954546 0.011155556
0000e0 e4 10 3a 3c fc 5b 3d 3c 15 a7 40 3c 2e f2 43 3c
       0.011356566 0.011557575 0.011758585 0.011959596
0000f0 47 3d 47 3c 60 88 4a 3c 79 d3 4d 3c 92 1e 51 3c
       0.012160606 0.012361616 0.012562626 0.012763636
000100 ab 69 54 3c c4 b4 57 3c dd ff 5a 3c f6 4a 5e 3c
       0.012964646 0.0131656565 0.013366667 0.013567677
000110 0f 96 61 3c 28 e1 64 3c 41 2c 68 3c 5a 77 6b 3c
       0.013768687 0.013969697 0.014170707 0.014371717
000120 73 c2 6e 3c 8c 0d 72 3c a5 58 75 3c be a3 78 3c
       0.0145727275 0.014773738 0.014974748 0.015175758
000130 d7 ee 7b 3c f0 39 7f 3c 84 42 81 3c 11 e8 82 3c
       0.015376768 0.015577778 0.015778787 0.015979799
000140 9d 8d 84 3c 2a 33 86 3c b6 d8 87 3c 43 7e 89 3c
       0.016180808 0.016381819 0.016582828 0.01678384
000150 cf 23 8b 3c 5c c9 8c 3c e8 6e 8e 3c 75 14 90 3c
       0.016984848 0.01718586 0.017386869 0.01758788
000160 01 ba 91 3c 8d 5f 93 3c 1a 05 95 3c a6 aa 96 3c
       0.017788889 0.017989898 0.01819091 0.018391918
000170 33 50 98 3c bf f5 99 3c 4c 9b 9b 3c d8 40 9d 3c
       0.01859293 0.018793939 0.01899495 0.019195959
000180 65 e6 9e 3c f1 8b a0 3c 7e 31 a2 3c 0a d7 a3 3c
       0.01939697 0.01959798 0.01979899 0.02

_actor.alphas_cumprod f4 [100]
000000 72 f9 7f 3f b9 e5 7f 3f d5 c4 7f 3f cd 96 7f 3f
       0.9999 0.99959904 0.99909717 0.9983948
000010 a6 5b 7f 3f 68 13 7f 3f 1f be 7e 3f d8 5b 7e 3f
       0.9974922 0.99638987 0.9950885 0.9935889
000020 9e ec 7d 3f 85 70 7d 3f 9d e7 7c 3f fc 51 7c 3f
       0.99189174 0.98999816 0.98790914 0.985626
000030 b8 af 7b 3f e8 00 7b 3f a7 45 7a 3f 10 7e 79 3f
       0.98315 0.9804826 0.9776253 0.9745798
000040 43 aa 78 3f 5d ca 77 3f 81 de 76 3f d1 e6 75 3f
       0.971348 0.96793157 0.96433264 0.9605532
000050 72 e3 74 3f 8b d4 73 3f 43 ba 72 3f c5 94 71 3f
       0.95659554 0.9524619 0.9481546 0.9436763
000060 3b 64 70 3f d3 28 6f 3f b9 e2 6d 3f 1f 92 6c 3f
       0.9390294 0.9342167 0.92924076 0.92410463
000070 34 37 6b 3f 2b d2 69 3f 38 63 68 3f 90 ea 66 3f
       0.9188111 0.91336316 0.90776396 0.90201664
000080 68 68 65 3f f8 dc 63 3f 78 48 62 3f 21 ab 60 3f
       0.89612436 0.89009047 0.8839183 0.8776112
000090 2d 05 5f 3f d8 56 5d 3f 5d a0 5b 3f fa e1 59 3f
       0.8711727 0.8646064 0.8579157 0.8511044
0000a0 ec 1b 58 3f 71 4e 56 3f c8 79 54 3f 32 9e 52 3f
       0.84417605 0.8371344 0.82998323 0.82272637
0000b0 ed bb 50 3f 3b d3 4e 3f 5d e4 4c 3f 93 ef 4a 3f
       0.8153675 0.8079106 0.80035955 0.7927181
0000c0 20 f5 48 3f 46 f5 46 3f 46 f0 44 3f 64 e6 42 3f
       0.7849903 0.7771801 0.7692913 0.761328
0000d0 e1 d7 40 3f 00 c5 3e 3f 03 ae 3c 3f 2d 93 3a 3f
       0.75329405 0.7451935 0.7370302 0.7288082
0000e0 c0 74 38 3f fe 52 36 3f 29 2e 34 3f 82 06 32 3f
       0.72053146 0.71220386 0.70382935 0.6954118
0000f0 4c dc 2f 3f c5 af 2d 3f 30 81 2b 3f cd 50 29 3f
       0.6869552 0.6784633 0.66994 0.6613892
000100 d9 1e 27 3f 96 eb 24 3f 40 b7 22 3f 16 82 20 3f
       0.65281445 0.64421976 0.6356087 0.62698495
000110 54 4c 1e 3f 37 16 1c 3f fb df 19 3f da a9 17 3f
       0.6183522 0.609714 0.6010739 0.5924355
000120 0d 74 15 3f cf 3e 13 3f 56 0a 11 3f db d6 0e 3f
       0.58380204 0.57517713 0.56656396 0.55796593
000130 94 a4 0c 3f b4 73 0a 3f 72 44 08 3f 00 17 06 3f
       0.54938626 0.540828 0.5322944 0.52378845
000140 8f eb 03 3f 52 c2 01 3f ef 36 ff 3e 5d ee fa 3e
       0.5153131 0.50687134 0.49846599 0.49009982
000150 49 ab f6 3e 0c 6e f2 3e fb 36 ee 3e 6b 06 ea 3e
       0.48177555 0.47349584 0.46526322 0.45708022
000160 ae dc e5 3e 12 ba e1 3e e4 9e dd 3e 6d 8b d9 3e
       0.44894928 0.44087273 0.43285286 0.42489186
000170 f5 7f d5 3e c2 7c d1 3e 15 82 cd 3e 2e 90 c9 3e
       0.41699186 0.40915495 0.40138307 0.39367813
000180 4b a7 c5 3e a6 c7 c1 3e 78 f1 bd 3e f6 24 ba 3e
       0.38604197 0.37847632 0.3709829 0.36356324

_actor.alphas_cumprod_prev f4 [100]
000000 00 00 80 3f 72 f9 7f 3f b9 e5 7f 3f d5 c4 7f 3f
       1.0 0.9999 0.99959904 0.99909717
000010 cd 96 7f 3f a6 5b 7f 3f 68 13 7f 3f 1f be 7e 3f
       0.9983948 0.9974922 0.99638987 0.9950885
000020 d8 5b 7e 3f 9e ec 7d 3f 85 70 7d 3f 9d e7 7c 3f
       0.9935889 0.99189174 0.98999816 0.98790914
000030 fc 51 7c 3f b8 af 7b 3f e8 00 7b 3f a7 45 7a 3f
       0.985626 0.98315 0.9804826 0.9776253
000040 10 7e 79 3f 43 aa 78 3f 5d ca 77 3f 81 de 76 3f
       0.9745798 0.971348 0.96793157 0.96433264
000050 d1 e6 75 3f 72 e3 74 3f 8b d4 73 3f 43 ba 72 3f
       0.9605532 0.95659554 0.9524619 0.9481546
000060 c5 94 71 3f 3b 64 70 3f d3 28 6f 3f b9 e2 6d 3f
       0.9436763 0.9390294 0.9342167 0.92924076
000070 1f 92 6c 3f 34 37 6b 3f 2b d2 69 3f 38 63 68 3f
       0.92410463 0.9188111 0.91336316 0.90776396
000080 90 ea 66 3f 68 68 65 3f f8 dc 63 3f 78 48 62 3f
       0.90201664 0.89612436 0.89009047 0.8839183
000090 21 ab 60 3f 2d 05 5f 3f d8 56 5d 3f 5d a0 5b 3f
       0.8776112 0.8711727 0.8646064 0.8579157
0000a0 fa e1 59 3f ec 1b 58 3f 71 4e 56 3f c8 79 54 3f
       0.8511044 0.84417605 0.8371344 0.82998323
0000b0 32 9e 52 3f ed bb 50 3f 3b d3 4e 3f 5d e4 4c 3f
       0.82272637 0.8153675 0.8079106 0.80035955
0000c0 93 ef 4a 3f 20 f5 48 3f 46 f5 46 3f 46 f0 44 3f
       0.7927181 0.7849903 0.7771801 0.7692913
0000d0 64 e6 42 3f e1 d7 40 3f 00 c5 3e 3f 03 ae 3c 3f
       0.761328 0.75329405 0.7451935 0.7370302
0000e0 2d 93 3a 3f c0 74 38 3f fe 52 36 3f 29 2e 34 3f
       0.7288082 0.72053146 0.71220386 0.70382935
0000f0 82 06 32 3f 4c dc 2f 3f c5 af 2d 3f 30 81 2b 3f
       0.6954118 0.6869552 0.6784633 0.66994
000100 cd 50 29 3f d9 1e 27 3f 96 eb 24 3f 40 b7 22 3f
       0.6613892 0.65281445 0.64421976 0.6356087
000110 16 82 20 3f 54 4c 1e 3f 37 16 1c 3f fb df 19 3f
       0.62698495 0.6183522 0.609714 0.6010739
000120 da a9 17 3f 0d 74 15 3f cf 3e 13 3f 56 0a 11 3f
       0.5924355 0.58380204 0.57517713 0.56656396
000130 db d6 0e 3f 94 a4 0c 3f b4 73 0a 3f 72 44 08 3f
       0.55796593 0.54938626 0.540828 0.5322944
000140 00 17 06 3f 8f eb 03 3f 52 c2 01 3f ef 36 ff 3e
       0.52378845 0.5153131 0.50687134 0.49846599
000150 5d ee fa 3e 49 ab f6 3e 0c 6e f2 3e fb 36 ee 3e
       0.49009982 0.48177555 0.47349584 0.46526322
000160 6b 06 ea 3e ae dc e5 3e 12 ba e1 3e e4 9e dd 3e
       0.45708022 0.44894928 0.44087273 0.43285286
000170 6d 8b d9 3e f5 7f d5 3e c2 7c d1 3e 15 82 cd 3e
       0.42489186 0.41699186 0.40915495 0.40138307
000180 2e 90 c9 3e 4b a7 c5 3e a6 c7 c1 3e 78 f1 bd 3e
       0.39367813 0.38604197 0.37847632 0.3709829

_actor.sqrt_alphas_cumprod f4 [100]
000000 b9 fc 7f 3f dc f2 7f 3f 69 e2 7f 3f 61 cb 7f 3f
       0.99995 0.9997995 0.9995485 0.99919707
000010 c6 ad 7f 3f 99 89 7f 3f dd 5e 7f 3f 96 2d 7f 3f
       0.9987453 0.9981933 0.99754125 0.99678934
000020 c5 f5 7e 3f 70 b7 7e 3f 9a 72 7e 3f 4a 27 7e 3f
       0.99593765 0.99498653 0.9939362 0.992787
000030 84 d5 7d 3f 4d 7d 7d 3f ae 1e 7d 3f ab b9 7c 3f
       0.99153924 0.9901932 0.9887494 0.98720807
000040 4f 4e 7c 3f 9f dc 7b 3f a4 64 7b 3f 67 e6 7a 3f
       0.9855699 0.98383516 0.9820044 0.98007816
000050 f2 61 7a 3f 4e d7 79 3f 85 46 79 3f a3 af 78 3f
       0.978057 0.97594154 0.9737323 0.97143
000060 b2 12 78 3f bf 6f 77 3f d4 c6 76 3f fe 17 76 3f
       0.96903527 0.96654886 0.9639714 0.9613036
000070 4b 63 75 3f c7 a8 74 3f 81 e8 73 3f 87 22 73 3f
       0.95854634 0.95570034 0.9527665 0.9497456
000080 e6 56 72 3f ae 85 71 3f ef ae 70 3f b8 d2 6f 3f
       0.94663846 0.94344604 0.9401693 0.93680906
000090 19 f1 6e 3f 22 0a 6e 3f e5 1d 6d 3f 72 2c 6c 3f
       0.93336636 0.9298421 0.9262374 0.9225532
0000a0 db 35 6b 3f 32 3a 6a 3f 89 39 69 3f f2 33 68 3f
       0.9187905 0.9149505 0.91103417 0.9070426
0000b0 81 29 67 3f 47 1a 66 3f 5a 06 65 3f cb ed 63 3f
       0.90297705 0.89883846 0.89462817 0.8903472
0000c0 b0 d0 62 3f 1b af 61 3f 23 89 60 3f db 5e 5f 3f
       0.8859968 0.88157815 0.87709254 0.8725411
0000d0 58 30 5e 3f af fd 5c 3f f6 c6 5b 3f 42 8c 5a 3f
       0.86792517 0.8632459 0.85850465 0.85370266
0000e0 a9 4d 59 3f 41 0b 58 3f 20 c5 56 3f 5c 7b 55 3f
       0.84884125 0.8439217 0.8389454 0.83391356
0000f0 0c 2e 54 3f 45 dd 52 3f 20 89 51 3f b3 31 50 3f
       0.8288276 0.8236888 0.8184986 0.81325835
000100 14 d7 4e 3f 5b 79 4d 3f 9f 18 4c 3f f7 b4 4a 3f
       0.80796933 0.802633 0.7972507 0.7918238
000110 7a 4e 49 3f 40 e5 47 3f 61 79 46 3f f3 0a 45 3f
       0.7863537 0.7808418 0.7752896 0.7696983
000120 0d 9a 43 3f c9 26 42 3f 3d b1 40 3f 81 39 3f 3f
       0.7640694 0.7584043 0.75270444 0.7469712
000130 ac bf 3d 3f d6 43 3c 3f 17 c6 3a 3f 85 46 39 3f
       0.74120593 0.7354101 0.7295851 0.7237323
000140 39 c5 37 3f 4a 42 36 3f cf bd 34 3f df 37 33 3f
       0.7178531 0.711949 0.70602125 0.7000713
000150 93 b0 31 3f 00 28 30 3f 3e 9e 2e 3f 63 13 2d 3f
       0.69410056 0.68811035 0.6821021 0.67607707
000160 88 87 2b 3f c1 fa 29 3f 27 6d 28 3f cf de 26 3f
       0.6700368 0.66398245 0.65791553 0.6518373
000170 d0 4f 25 3f 3f c0 23 3f 34 30 22 3f c3 9f 20 3f
       0.6457491 0.6396522 0.633548 0.6274378
000180 02 0f 1f 3f 07 7e 1d 3f e8 ec 1b 3f b9 5b 1a 3f
       0.62132275 0.6152043 0.60908365 0.6029621

_actor.sqrt_one_minus_alphas_cumprod f4 [100]
000000 85 da 23 3c 5d 09 a4 3c 74 25 f6 3c 4f 1b 24 3d
       0.01000083 0.020023996 0.030047156 0.040065106
000010 96 1e 4d 3d 0d 1b 76 3d 23 87 8f 3d 51 fb a3 3d
       0.050077997 0.06008439 0.07008197 0.08006919
000020 f8 69 b8 3d 9e d1 cc 3d e6 31 e1 3d c6 89 f5 3d
       0.09004587 0.10000919 0.109958455 0.11989169
000030 44 ec 04 3e c4 0e 0f 3e f3 2b 19 3e 7b 43 23 3e
       0.12980753 0.13970476 0.14958172 0.1594371
000040 de 54 2d 3e dc 5f 37 3e 01 64 41 3e f9 60 4b 3e
       0.16926906 0.17907661 0.18885805 0.19861211
000050 64 56 55 3e df 43 5f 3e 16 29 69 3e a1 05 73 3e
       0.20833737 0.21803235 0.2276958 0.23732616
000060 31 d9 7c 3e b0 51 83 3e f3 31 88 3e 2d 0d 8d 3e
       0.24692227 0.2564826 0.26600608 0.27549115
000070 39 e3 91 3e e9 b3 96 3e 13 7f 9b 3e 8b 44 a0 3e
       0.2849367 0.29434136 0.30370387 0.31302294
000080 2b 04 a5 3e c9 bd a9 3e 3c 71 ae 3e 5f 1e b3 3e
       0.32229742 0.33152607 0.34070766 0.3498411
000090 0a c5 b7 3e 16 65 bc 3e 5f fe c0 3e bf 90 c5 3e
       0.35892516 0.36795872 0.3769407 0.38586995
0000a0 12 1c ca 3e 37 a0 ce 3e 09 1d d3 3e 64 92 d7 3e
       0.3947454 0.4035661 0.4123309 0.42103875
0000b0 2c 00 dc 3e 3d 66 e0 3e 78 c4 e4 3e c0 1a e9 3e
       0.4296888 0.43828002 0.44681144 0.4552822
0000c0 f5 68 ed 3e f9 ae f1 3e b2 ec f5 3e 02 22 fa 3e
       0.46369138 0.47203806 0.48032147 0.4885407
0000d0 cf 4e fe 3e 80 39 01 3f 3e 47 03 3f 94 50 05 3f
       0.496695 0.50478363 0.5128058 0.5207608
0000e0 77 55 07 3f dc 55 09 3f b7 51 0b 3f ff 48 0d 3f
       0.52864784 0.53646636 0.5442156 0.5518951
0000f0 a8 3b 0f 3f ab 29 11 3f fd 12 13 3f 94 f7 14 3f
       0.55950403 0.56704205 0.5745085 0.58190274
000100 6b d7 16 3f 77 b2 18 3f b3 88 1a 3f 16 5a 1c 3f
       0.5892245 0.59647316 0.60364836 0.6107496
000110 9a 26 1e 3f 39 ee 1f 3f ed b0 21 3f b2 6e 23 3f
       0.6177765 0.62472874 0.6316059 0.6384078
000120 81 27 25 3f 57 db 26 3f 30 8a 28 3f 08 34 2a 3f
       0.64513403 0.65178436 0.6583586 0.66485643
000130 db d8 2b 3f a8 78 2d 3f 6b 13 2f 3f 23 a9 30 3f
       0.6712777 0.6776223 0.68389004 0.6900808
000140 cf 39 32 3f 6d c5 33 3f fb 4b 35 3f 7d cd 36 3f
       0.6961946 0.7022312 0.7081906 0.714073
000150 ee 49 38 3f 52 c1 39 3f a8 33 3b 3f f3 a0 3c 3f
       0.7198781 0.7256061 0.73125696 0.7368309
000160 34 09 3e 3f 6c 6c 3f 3f 9e ca 40 3f cf 23 42 3f
       0.7423279 0.74774814 0.7530917 0.7583589
000170 ff 77 43 3f 32 c7 44 3f 6d 11 46 3f b4 56 47 3f
       0.76354975 0.7686645 0.7737034 0.77866673
000180 0b 97 48 3f 78 d2 49 3f ff 08 4b 3f a5 3a 4c 3f
       0.78355473 0.78836775 0.793106 0.79776984

_actor.log_one_minus_alphas_cumprod f4 [100]
000000 e0 5c 13 c1 f0 4a fa c0 b6 51 e0 c0 6a e7 cd c0
       -9.210175 -7.8216476 -7.0099745 -6.434499
000010 8a a0 bf c0 e5 f7 b3 c0 24 1e aa c0 60 97 a1 c0
       -5.988347 -5.6240106 -5.3161793 -5.0497284
000020 6f 13 9a c0 0c 5c 93 c0 2e 4a 8d c0 31 c1 87 c0
       -4.8148723 -4.604986 -4.415305 -4.242333
000030 41 ab 82 c0 c3 ee 7b c0 55 30 73 c0 84 05 6b c0
       -4.083405 -3.9364479 -3.799825 -3.6722116
000040 ae 5c 63 c0 0c 27 5c c0 61 58 55 c0 3f e6 4e c0
       -3.5525317 -3.4398832 -3.3335192 -3.232803
000050 c6 c7 48 c0 54 f5 42 c0 47 68 3d c0 de 1a 38 c0
       -3.1371932 -3.0462236 -2.9594896 -2.8766398
000060 01 08 33 c0 3d 2b 2e c0 92 80 29 c0 80 04 25 c0
       -2.7973635 -2.721389 -2.6484723 -2.5783997
000070 d7 b3 20 c0 c2 8b 1c c0 b2 89 18 c0 56 ab 14 c0
       -2.5109766 -2.4460301 -2.3834043 -2.3229575
000080 91 ee 10 c0 79 51 0d c0 4e d2 09 c0 74 6f 06 c0
       -2.264561 -2.2080977 -2.153461 -2.1005526
000090 73 27 03 c0 e1 f1 ff bf 56 c5 f9 bf fa c6 f3 bf
       -2.0492828 -1.999569 -1.9513347 -1.9045098
0000a0 a5 f4 ed bf 5a 4c e8 bf 40 cc e2 bf a2 72 dd bf
       -1.8590285 -1.8148301 -1.7718582 -1.7300608
0000b0 de 3d d8 bf 78 2c d3 bf 06 3d ce bf 34 6e c9 bf
       -1.689388 -1.6497946 -1.6112373 -1.5736756
0000c0 c8 be c4 bf 97 2d c0 bf 87 b9 bb bf 91 61 b7 bf
       -1.5370722 -1.5013913 -1.4665993 -1.432665
0000d0 b9 24 b3 bf 13 02 af bf bf f8 aa bf ea 07 a7 bf
       -1.3995582 -1.3672508 -1.3357161 -1.304929
0000e0 cb 2e a3 bf a4 6c 9f bf be c0 9b bf 6c 2a 98 bf
       -1.2748655 -1.245503 -1.2168195 -1.1887946
0000f0 0d a9 94 bf 00 3c 91 bf b3 e2 8d bf 98 9c 8a bf
       -1.161409 -1.1346436 -1.1084808 -1.0829039
000100 22 69 87 bf d4 47 84 bf 2e 38 81 bf 72 73 7c bf
       -1.0578959 -1.033442 -1.009527 -0.98613656
000110 03 98 76 bf 36 dd 70 bf 38 42 6b bf 3b c6 65 bf
       -0.963257 -0.9408754 -0.91897917 -0.897556
000120 7c 68 60 bf 41 28 5b bf d2 04 56 bf 84 fd 50 bf
       -0.8765943 -0.856083 -0.83601105 -0.81636834
000130 ae 11 4c bf a9 40 47 bf df 89 42 bf b5 ec 3d bf
       -0.7971448 -0.7783304 -0.75991625 -0.7418931
000140 97 68 39 bf fb fc 34 bf 57 a9 30 bf 22 6d 2c bf
       -0.72425216 -0.7069852 -0.6900839 -0.67354023
000150 e1 47 28 bf 16 39 24 bf 46 40 20 bf fb 5c 1c bf
       -0.6573468 -0.64149606 -0.62598073 -0.61079377
000160 c4 8e 18 bf 33 d5 14 bf dc 2f 11 bf 54 9e 0d bf
       -0.59592843 -0.58137816 -0.5671365 -0.55319715
000170 37 20 0a bf 24 b5 06 bf b5 5c 03 bf 90 16 00 bf
       -0.53955406 -0.5262015 -0.51313335 -0.5003443
000180 b1 c4 f9 be 64 7f f3 be 90 5c ed be 88 5b e7 be
       -0.48782876 -0.4755813 -0.46359682 -0.4518702

_actor.sqrt_recip_alphas_cumprod f4 [100]
000000 a3 01 80 3f 92 06 80 3f cd 0e 80 3f 55 1a 80 3f
       1.00005 1.0002005 1.0004517 1.0008036
000010 2a 29 80 3f 4f 3b 80 3f c5 50 80 3f 8c 69 80 3f
       1.0012562 1.00181 1.0024649 1.003221
000020 a9 85 80 3f 1c a5 80 3f e9 c7 80 3f 13 ee 80 3f
       1.004079 1.0050387 1.0061008 1.0072654
000030 9c 17 81 3f 88 44 81 3f db 74 81 3f 99 a8 81 3f
       1.008533 1.0099039 1.0113786 1.0129577
000040 c5 df 81 3f 65 1a 82 3f 7c 58 82 3f 12 9a 82 3f
       1.0146414 1.0164305 1.0183253 1.0203269
000050 29 df 82 3f c8 27 83 3f f6 73 83 3f b7 c3 83 3f
       1.0224353 1.0246515 1.0269763 1.0294102
000060 13 17 84 3f 10 6e 84 3f b6 c8 84 3f 0c 27 85 3f
       1.0319542 1.0346088 1.0373752 1.0402541
000070 19 89 85 3f e6 ee 85 3f 7a 58 86 3f df c5 86 3f
       1.0432464 1.0463531 1.0495751 1.0529135
000080 1e 37 87 3f 3f ac 87 3f 4c 25 88 3f 50 a2 88 3f
       1.0563695 1.059944 1.0636382 1.0674534
000090 55 23 89 3f 64 a8 89 3f 8a 31 8a 3f d2 be 8a 3f
       1.0713907 1.0754514 1.0796368 1.0839484
0000a0 47 50 8b 3f f5 e5 8b 3f eb 7f 8c 3f 32 1e 8d 3f
       1.0883874 1.0929552 1.0976537 1.102484
0000b0 da c0 8d 3f f0 67 8e 3f 82 13 8f 3f 9f c3 8f 3f
       1.1074479 1.1125469 1.1177828 1.1231574
0000c0 55 78 90 3f b4 31 91 3f cd ef 91 3f ad b2 92 3f
       1.1286722 1.1343293 1.1401306 1.1460778
0000d0 68 7a 93 3f 0f 47 94 3f b1 18 95 3f 63 ef 95 3f
       1.152173 1.1584185 1.164816 1.171368
0000e0 37 cb 96 3f 3f ac 97 3f 90 92 98 3f 3e 7e 99 3f
       1.1780766 1.184944 1.1919727 1.1991651
0000f0 5d 6f 9a 3f 04 66 9b 3f 47 62 9c 3f 3d 64 9d 3f
       1.2065235 1.2140508 1.2217492 1.2296215
000100 ff 6b 9e 3f a2 79 9f 3f 40 8d a0 3f f1 a6 a1 3f
       1.2376708 1.2458994 1.2543106 1.2629071
000110 d1 c6 a2 3f f7 ec a3 3f 80 19 a5 3f 86 4c a6 3f
       1.2716924 1.2806691 1.2898407 1.2992103
000120 28 86 a7 3f 81 c6 a8 3f b0 0d aa 3f d3 5b ab 3f
       1.3087816 1.3185579 1.3285427 1.3387398
000130 09 b1 ac 3f 74 0d ae 3f 33 71 af 3f 69 dc b0 3f
       1.3491527 1.3597856 1.3706421 1.3817264
000140 39 4f b2 3f c5 c9 b3 3f 34 4c b5 3f a9 d6 b6 3f
       1.3930427 1.404595 1.416388 1.4284259
000150 4d 69 b8 3f 45 04 ba 3f bc a7 bb 3f d8 53 bd 3f
       1.4407135 1.4532553 1.4660563 1.4791212
000160 c8 08 bf 3f b3 c6 c0 3f c9 8d c2 3f 36 5e c4 3f
       1.4924555 1.5060638 1.5199519 1.5341251
000170 2b 38 c6 3f d6 1b c8 3f 6b 09 ca 3f 1a 01 cc 3f
       1.5485891 1.5633495 1.5784124 1.5937836
000180 18 03 ce 3f 9c 0f d0 3f da 26 d2 3f 0c 49 d4 3f
       1.6094694 1.6254764 1.6418107 1.6584792

_actor.sqrt_recipm1_alphas_cumprod f4 [100]
000000 85 da 23 3c ba 12 a4 3c 7d 40 f6 3c d5 3c 24 3d
       0.01000083 0.02002846 0.030060047 0.040097076
000010 b1 60 4d 3d 5f 8d 76 3d c4 e1 8f 3d 87 82 a4 3d
       0.05014104 0.060193416 0.07025483 0.080327086
000020 88 2a b9 3d c6 d9 cd 3d a8 91 e2 3d 58 52 f7 3d
       0.09041315 0.100513026 0.11062938 0.12076253
000030 af 0e 06 3e 77 79 10 3e 1c ea 1a 3e 0d 61 25 3e
       0.13091539 0.14108835 0.15128368 0.16150303
000040 88 de 2f 3e 2a 63 3a 3e 44 ef 44 3e 51 83 4f 3e
       0.17174733 0.1820189 0.19231898 0.20264937
000050 b3 1f 5a 3e dc c4 64 3e 4e 73 6f 3e 61 2b 7a 3e
       0.21301155 0.22340721 0.23383829 0.2443061
000060 c6 76 82 3e 29 dd 87 3e 10 49 8d 3e b6 ba 92 3e
       0.25481242 0.2653592 0.27594805 0.28658074
000070 5d 32 98 3e 33 b0 9d 3e 82 34 a3 3e 81 bf a8 3e
       0.29725924 0.30798492 0.31875998 0.32958606
000080 71 51 ae 3e 93 ea b3 3e 26 8b b9 3e 68 33 bf 3e
       0.3404651 0.35139903 0.36238974 0.37343907
000090 a0 e3 c4 3e 0b 9c ca 3e f0 5c d0 3e 96 26 d6 3e
       0.38454914 0.39572176 0.40695906 0.41826314
0000a0 3c f9 db 3e 30 d5 e1 3e bc ba e7 3e 1c aa ed 3e
       0.42963588 0.44107962 0.45259655 0.46418846
0000b0 a7 a3 f3 3e a3 a7 f9 3e 59 b6 ff 3e 11 e8 02 3f
       0.47585794 0.4876071 0.49943808 0.51135355
0000c0 a2 fa 05 3f 08 13 09 3f 6e 31 0c 3f fa 55 0f 3f
       0.5233556 0.53544664 0.54762924 0.55990565
0000d0 da 80 12 3f 39 b2 15 3f 41 ea 18 3f 20 29 1c 3f
       0.5722786 0.5847507 0.59732443 0.6100025
0000e0 03 6f 1f 3f 18 bc 22 3f 8f 10 26 3f 99 6c 29 3f
       0.62278765 0.6356826 0.64869016 0.6618133
0000f0 64 d0 2c 3f 27 3c 30 3f 10 b0 33 3f 54 2c 37 3f
       0.6750548 0.68841785 0.70190525 0.71552014
000100 2d b1 3a 3f c9 3e 3e 3f 68 d5 41 3f 3b 75 45 3f
       0.729266 0.7431455 0.7571626 0.77132004
000110 81 1e 49 3f 71 d1 4c 3f 48 8e 50 3f 43 55 54 3f
       0.7856217 0.8000708 0.81467104 0.829426
000120 a4 26 58 3f a6 02 5c 3f 8e e9 5f 3f 9d db 63 3f
       0.8443396 0.8594154 0.8746575 0.8900698
000130 14 d9 67 3f 40 e2 6b 3f 61 f7 6f 3f c4 18 74 3f
       0.9056561 0.92142105 0.93736845 0.9535029
000140 b3 46 78 3f 77 81 7c 3f b0 64 80 3f 5f 8f 82 3f
       0.9698288 0.9863505 1.0030727 1.0200003
000150 f1 c0 84 3f 8e f9 86 3f 64 39 89 3f 9b 80 8b 3f
       1.0371381 1.0544908 1.0720639 1.0898622
000160 62 cf 8d 3f e5 25 90 3f 53 84 92 3f dc ea 94 3f
       1.1078913 1.1261564 1.1446632 1.1634173
000170 b2 59 97 3f 04 d1 99 3f 09 51 9c 3f f3 d9 9e 3f
       1.1824248 1.2016912 1.221223 1.2410263
000180 f8 6b a1 3f 4f 07 a4 3f 31 ac a6 3f d7 5a a9 3f
       1.2611074 1.281473 1.3021299 1.3230847

_actor.posterior_variance f4 [100]
000000 00 00 00 00 ce 76 9d 38 db c8 69 39 19 4f cf 39
       0.0 7.5084725e-05 0.00022295436 0.0003954105
000010 7d b1 17 3a de 3a 49 3a ee a8 7b 3a 80 54 97 3a
       0.00057866407 0.00076763134 0.00096000626 0.0011545569
000020 0c 05 b1 3a b5 da ca 3a 11 ca e4 3a 5e ce fe 3a
       0.0013505532 0.0015476557 0.001745524 0.0019440164
000030 4f 71 0c 3b c8 81 19 3b bc 97 26 3b 10 b2 33 3b
       0.0021429842 0.0023423303 0.002542003 0.0027419366
000040 77 d0 40 3b e0 f1 4d 3b 5c 16 5b 3b 4d 3d 68 3b
       0.002942113 0.0031424686 0.0033430075 0.0035436929
000050 8a 66 75 3b f3 48 81 3b 87 df 87 3b 06 77 8e 3b
       0.0037445151 0.003945464 0.0041465196 0.004347685
000060 45 0f 95 3b 4f a8 9b 3b f5 41 a2 3b 59 dc a8 3b
       0.0045489394 0.0047502886 0.0049517103 0.0051532206
000070 4a 77 af 3b d8 12 b6 3b f7 ae bc 3b a0 4b c3 3b
       0.0053547965 0.0055564456 0.005758162 0.005959943
000080 c4 e8 c9 3b 6f 86 d0 3b 8f 24 d7 3b 23 c3 dd 3b
       0.006161781 0.006363682 0.0065656374 0.006767647
000090 28 62 e4 3b a1 01 eb 3b 7c a1 f1 3b c8 41 f8 3b
       0.006969709 0.007171825 0.0073739868 0.007576201
0000a0 75 e2 fe 3b c2 c1 02 3c 79 12 06 3c 64 63 09 3c
       0.0077784606 0.007980766 0.008183115 0.008385513
0000b0 77 b4 0c 3c ba 05 10 3c 2b 57 13 3c c1 a8 16 3c
       0.008587948 0.008790428 0.00899295 0.0091955075
0000c0 86 fa 19 3c 75 4c 1d 3c 88 9e 20 3c c8 f0 23 3c
       0.009398108 0.009600748 0.009803422 0.010006137
0000d0 2b 43 27 3c b5 95 2a 3c 64 e8 2d 3c 38 3b 31 3c
       0.010208885 0.0104116695 0.010614488 0.0108173415
0000e0 31 8e 34 3c 4c e1 37 3c 8a 34 3b 3c e8 87 3e 3c
       0.011020229 0.011223149 0.0114261005 0.011629082
0000f0 6c db 41 3c 09 2f 45 3c cd 82 48 3c af d6 4b 3c
       0.011832099 0.01203514 0.012238217 0.012441321
000100 a9 2a 4f 3c c8 7e 52 3c fe d2 55 3c 54 27 59 3c
       0.012644448 0.01284761 0.013050793 0.013254005
000110 c4 7b 5c 3c 51 d0 5f 3c f7 24 63 3c b7 79 66 3c
       0.013457242 0.013660506 0.013863794 0.014067105
000120 8d ce 69 3c 80 23 6d 3c 86 78 70 3c a6 cd 73 3c
       0.014270437 0.014473796 0.0146771725 0.014880573
000130 dc 22 77 3c 23 78 7a 3c 83 cd 7d 3c 7c 91 80 3c
       0.015083995 0.015287432 0.015490892 0.015694372
000140 3e 3c 82 3c 0c e7 83 3c e1 91 85 3c bf 3c 87 3c
       0.015897866 0.016101383 0.016304912 0.016508458
000150 a6 e7 88 3c 94 92 8a 3c 89 3d 8c 3c 87 e8 8d 3c
       0.016712021 0.016915597 0.017119186 0.017322792
000160 8a 93 8f 3c 95 3e 91 3c a5 e9 92 3c ba 94 94 3c
       0.017526407 0.017730037 0.017933676 0.018137325
000170 d7 3f 96 3c f7 ea 97 3c 1d 96 99 3c 46 41 9b 3c
       0.018340988 0.018544657 0.018748337 0.018952023
000180 75 ec 9c 3c a4 97 9e 3c d9 42 a0 3c 10 ee a1 3c
       0.01915572 0.019359417 0.019563125 0.019766837

_actor.posterior_log_variance_clipped f4 [100]
000000 f1 34 38 c2 47 f3 17 c1 65 89 06 c1 1f bd fa c0
       -46.0517 -9.496894 -8.408544 -7.835586
000010 a0 8d ee c0 ac 82 e5 c0 b1 5a de c0 01 73 d8 c0
       -7.454788 -7.172201 -6.9485707 -6.7640386
000020 85 6e d3 c0 8c 12 cf c0 f0 38 cb c0 a6 c6 c7 c0
       -6.607241 -6.471014 -6.3507004 -6.242999
000030 65 a8 c4 c0 be cf c1 c0 96 31 bf c0 5a c5 bc c0
       -6.145556 -6.056609 -5.974803 -5.899091
000040 1d 84 ba c0 6c 68 b8 c0 a5 6d b6 c0 10 90 b4 c0
       -5.828627 -5.762747 -5.7008843 -5.6425858
000050 80 cc b2 c0 44 20 b1 c0 1a 89 af c0 03 05 ae c0
       -5.5874634 -5.5351887 -5.485486 -5.438112
000060 52 92 ac c0 83 2f ab c0 51 db a9 c0 8c 94 a8 c0
       -5.3928614 -5.34955 -5.308022 -5.268133
000070 37 5a a7 c0 64 2b a6 c0 44 07 a5 c0 1d ed a3 c0
       -5.2297626 -5.1927967 -5.157137 -5.1226945
000080 47 dc a2 c0 28 d4 a1 c0 38 d4 a0 c0 f8 db 9f c0
       -5.0893893 -5.057148 -5.0259056 -4.9956017
000090 f6 ea 9e c0 c7 00 9e c0 0e 1d 9d c0 6f 3f 9c c0
       -4.9661818 -4.937595 -4.9097967 -4.8827434
0000a0 9a 67 9b c0 44 95 9a c0 26 c8 99 c0 ff ff 98 c0
       -4.8563967 -4.830721 -4.805682 -4.7812495
0000b0 95 3c 98 c0 ae 7d 97 c0 16 c3 96 c0 9e 0c 96 c0
       -4.7573953 -4.7340918 -4.711314 -4.68904
0000c0 16 5a 95 c0 54 ab 94 c0 32 00 94 c0 87 58 93 c0
       -4.667247 -4.645914 -4.625024 -4.6045566
0000d0 33 b4 92 c0 12 13 92 c0 07 75 91 c0 f2 d9 90 c0
       -4.584497 -4.564828 -4.5455356 -4.5266047
0000e0 b9 41 90 c0 40 ac 8f c0 70 19 8f c0 2f 89 8e c0
       -4.508023 -4.4897766 -4.471855 -4.454246
0000f0 68 fb 8d c0 06 70 8d c0 f2 e6 8c c0 1c 60 8c c0
       -4.4369392 -4.4199247 -4.4031916 -4.386732
000100 70 db 8b c0 dd 58 8b c0 52 d8 8a c0 bf 59 8a c0
       -4.370537 -4.3545976 -4.3389063 -4.3234553
000110 16 dd 89 c0 46 62 89 c0 44 e9 88 c0 00 72 88 c0
       -4.308238 -4.2932463 -4.278475 -4.263916
000120 70 fc 87 c0 86 88 87 c0 37 16 87 c0 78 a5 86 c0
       -4.249565 -4.2354155 -4.221462 -4.207699
000130 3d 36 86 c0 7e c8 85 c0 2f 5c 85 c0 48 f1 84 c0
       -4.194121 -4.180724 -4.167503 -4.1544533
000140 bf 87 84 c0 8a 1f 84 c0 a3 b8 83 c0 01 53 83 c0
       -4.1415706 -4.12885 -4.1162887 -4.1038823
000150 9c ee 82 c0 6c 8b 82 c0 6a 29 82 c0 8f c8 81 c0
       -4.091627 -4.0795193 -4.0675554 -4.0557323
000160 d4 68 81 c0 33 0a 81 c0 a5 ac 80 c0 25 50 80 c0
       -4.0440464 -4.032495 -4.021075 -4.0097833
000170 57 e9 7f c0 68 34 7f c0 70 81 7e c0 66 d0 7d c0
       -3.998617 -3.9875736 -3.9766502 -3.9658446
000180 3e 21 7d c0 f0 73 7c c0 70 c8 7b c0 b7 1e 7b c0
       -3.955154 -3.9445763 -3.9341087 -3.9237497

_actor.posterior_mean_coef1 f4 [100]
000000 20 f5 7f 3f e7 2c 40 3f 0a 52 0e 3f 4e 23 e0 3e
       0.99983406 0.75068516 0.5559393 0.43776935
000010 48 6c b8 3e 62 86 9c 3e ad e7 87 3e 76 1f 70 3e
       0.36020112 0.30571276 0.26543942 0.23449501
000020 cb 05 57 3e 36 a9 42 3e 17 d0 31 3e f7 a4 23 3e
       0.20998304 0.19009861 0.17364536 0.15980898
000030 75 90 17 3e 83 24 0d 3e 88 0f 04 3e bd 26 f8 3d
       0.148012 0.1378346 0.1289655 0.12116764
000040 77 00 ea 3d 9b 60 dd 3d 78 0b d2 3d b0 d0 c7 3d
       0.1142587 0.10809442 0.10256094 0.09756601
000050 f6 88 be 3d 02 14 b6 3d e6 56 ae 3d 37 3b a7 3d
       0.09303467 0.08890535 0.08512668 0.08165591
000060 f2 ad a0 3d 06 9f 9a 3d 9c 00 95 3d f0 c6 8f 3d
       0.078456774 0.075498626 0.07275507 0.07020366
000070 b5 e7 8a 3d 0d 5a 86 3d 34 16 82 3d b2 2a 7c 3d
       0.06782476 0.065601446 0.06351891 0.061564155
000080 ef a2 74 3d 88 8a 6d 3d 0f d8 66 3d 1e 83 60 3d
       0.059725698 0.05799344 0.056358393 0.054812543
000090 33 84 5a 3d 9e d4 54 3d 4c 6e 4f 3d d3 4b 4a 3d
       0.05334873 0.05196058 0.050642297 0.049388718
0000a0 41 68 45 3d 24 bf 40 3d 6c 4c 3c 3d 71 0c 38 3d
       0.048195127 0.047057286 0.04597132 0.04493374
0000b0 cc fb 33 3d 71 17 30 3d 8f 5c 2c 3d 8b c8 28 3d
       0.043941304 0.042991105 0.04208046 0.041206878
0000c0 0a 59 25 3d da 0b 22 3d f5 de 1e 3d 81 d0 1b 3d
       0.040368117 0.039562084 0.038786847 0.03804064
0000d0 c1 de 18 3d 1c 08 16 3d 16 4b 13 3d 4d a6 10 3d
       0.03732181 0.036628827 0.03596028 0.035314847
0000e0 7a 18 0e 3d 69 a0 0b 3d fe 3c 09 3d 2b ed 06 3d
       0.03469131 0.034088526 0.033505432 0.032941025
0000f0 fa af 04 3d 7c 84 02 3d da 69 00 3d 8f be fc 3c
       0.032394387 0.03186463 0.031350948 0.030852584
000100 fb c7 f8 3c 96 ee f4 3c 08 31 f1 3c 0d 8e ed 3c
       0.030368796 0.029898923 0.029442325 0.0289984
000110 77 04 ea 3c 27 93 e6 3c 10 39 e3 3c 32 f5 df 3c
       0.028566582 0.02814634 0.02773717 0.027338598
000120 98 c6 dc 3c 60 ac d9 3c af a5 d6 3c bb b1 d3 3c
       0.026950166 0.026571453 0.026202051 0.025841584
000130 c0 cf d0 3c ff fe cd 3c ce 3e cb 3c 87 8e c8 3c
       0.025489688 0.025146006 0.024810221 0.024482025
000140 84 ed c5 3c 37 5b c3 3c 08 d7 c0 3c 70 60 be 3c
       0.024161108 0.023847206 0.023540035 0.023239344
000150 ed f6 bb 3c 05 9a b9 3c 3a 49 b7 3c 1e 04 b5 3c
       0.022944892 0.02265645 0.022373784 0.02209669
000160 42 ca b2 3c 42 9b b0 3c b8 76 ae 3c 45 5c ac 3c
       0.02182496 0.021558408 0.021296844 0.021040091
000170 91 4b aa 3c 41 44 a8 3c 02 46 a6 3c 88 50 a4 3c
       0.020787986 0.020540358 0.020297054 0.020057932
000180 83 63 a2 3c a7 7e a0 3c b4 a1 9e 3c 64 cc 9c 3c
       0.019822842 0.019591643 0.019364215 0.01914043

_actor.posterior_mean_coef2 f4 [100]
000000 00 00 00 00 06 64 7f 3e 57 54 e3 3e ef ee 0f 3f
       0.0 0.249405 0.44400284 0.5622396
000010 bf c9 23 3f e5 bb 31 3f 17 0c 3c 3f d8 f8 43 3f
       0.63979715 0.6942733 0.7345595 0.7655158
000020 09 3e 4a 3f c8 55 4f 3f a8 8b 53 3f 96 16 57 3f
       0.7900091 0.80990267 0.82634974 0.8401884
000030 ba 1b 5a 3f 74 b6 5c 3f a3 fb 5e 3f 74 fa 60 3f
       0.8519856 0.862159 0.8710272 0.8788216
000040 56 bf 62 3f 0b 53 64 3f 9a bd 65 3f bd 04 67 3f
       0.88573205 0.89189214 0.89742434 0.90241605
000050 7e 2d 68 3f f1 3b 69 3f 4d 33 6a 3f 8e 16 6b 3f
       0.90694416 0.9110709 0.9148453 0.9183129
000060 e8 e7 6b 3f 84 a9 6c 3f eb 5c 6d 3f d5 03 6e 3f
       0.92150736 0.9244616 0.92719907 0.929746
000070 4f 9f 6e 3f 9b 30 6f 3f a8 b8 6f 3f 50 38 70 3f
       0.93211836 0.9343354 0.9364114 0.93835926
000080 46 b0 70 3f 47 21 71 3f de 8b 71 3f 92 f0 71 3f
       0.9401897 0.941914 0.94354045 0.94507706
000090 db 4f 72 3f 2b aa 72 3f d6 ff 72 3f 44 51 73 3f
       0.946531 0.94790906 0.94921625 0.95045877
0000a0 b4 9e 73 3f 6e e8 73 3f bb 2e 74 3f d8 71 74 3f
       0.95164037 0.95276535 0.95383805 0.9548621
0000b0 e8 b1 74 3f 30 ef 74 3f d5 29 75 3f fb 61 75 3f
       0.95583963 0.9567747 0.95766956 0.9585263
0000c0 d1 97 75 3f 77 cb 75 3f 05 fd 75 3f a7 2c 76 3f
       0.9593478 0.9601359 0.960892 0.96161884
0000d0 6c 5a 76 3f 73 86 76 3f d1 b0 76 3f a0 d9 76 3f
       0.9623172 0.96298903 0.9636355 0.9642582
0000e0 f1 00 77 3f d5 26 77 3f 64 4b 77 3f a7 6e 77 3f
       0.9648581 0.9654363 0.9659941 0.9665322
0000f0 b5 90 77 3f 92 b1 77 3f 59 d1 77 3f 0f f0 77 3f
       0.9670518 0.96755326 0.96803814 0.96850675
000100 b8 0d 78 3f 72 2a 78 3f 34 46 78 3f 16 61 78 3f
       0.96895933 0.96939766 0.9698212 0.9702314
000110 19 7b 78 3f 49 94 78 3f b1 ac 78 3f 54 c4 78 3f
       0.9706283 0.97101265 0.97138506 0.9717457
000120 38 db 78 3f 6d f1 78 3f ec 06 79 3f c9 1b 79 3f
       0.972095 0.97243387 0.97276187 0.9730802
000130 03 30 79 3f 9a 43 79 3f a1 56 79 3f 13 69 79 3f
       0.97338885 0.97368777 0.9739781 0.97425956
000140 f4 7a 79 3f 51 8c 79 3f 27 9d 79 3f 79 ad 79 3f
       0.97453237 0.9747973 0.9750542 0.97530323
000150 54 bd 79 3f b4 cc 79 3f 9d db 79 3f 13 ea 79 3f
       0.97554517 0.9757798 0.9760073 0.97622794
000160 1c f8 79 3f b8 05 7a 3f ec 12 7a 3f b9 1f 7a 3f
       0.9764421 0.97664976 0.9768512 0.97704655
000170 24 2c 7a 3f 30 38 7a 3f da 43 7a 3f 2a 4f 7a 3f
       0.97723603 0.97741985 0.97759783 0.97777045
000180 20 5a 7a 3f bc 64 7a 3f 07 6f 7a 3f fd 78 7a 3f
       0.9779377 0.9780996 0.97825664 0.97840863

_actor.model.time_mlp.1.weight f4 [32, 16]
000000 cc b8 43 3e 66 7b 54 3e 20 e5 6f bd 1c 2a 6b 3e
       0.19113463 0.20750198 -0.05856812 0.22965282
000010 b0 5c 60 bd 38 a2 4e 3d 10 45 f9 bd 28 58 16 3e
       -0.054775894 0.050447673 -0.12171376 0.14682066
000020 cc ac 61 3e 0e cf 3b be a4 83 5e 3e b0 a6 3f 3d
       0.22038573 -0.18340704 0.21729904 0.046789825
000030 94 22 3d 3e 50 ae 0a 3d 5c e1 f6 3d 60 94 10 bd
       0.18470222 0.033857644 0.12054703 -0.03529775
000040 c6 58 45 3e 38 5b 17 3d a4 05 ef bd 08 82 82 3d
       0.19272146 0.036952227 -0.11670998 0.06372458
000050 ac e5 eb bd c0 2c f0 bc fc f3 cf bd ae d2 29 3e
       -0.11518416 -0.029318213 -0.10153958 0.16584274
000060 2a 14 4a be 8c 09 ec bd 6c 93 90 bd fe ec 19 be
       -0.19734254 -0.115252584 -0.070593685 -0.15031812
000070 f0 4b c1 3c 8a d8 7c be 28 32 67 3e c0 76 59 be
       0.02359578 -0.24691978 0.22577727 -0.21236706
000080 96 a3 45 3e c8 69 2a 3d ac 3f a6 bd f8 31 1e 3e
       0.19300684 0.041604787 -0.08117613 0.15448749
000090 58 97 1f 3d b0 d6 4e 3e 00 e3 df 3c 98 78 a1 bd
       0.038962692 0.20199084 0.027329922 -0.078843296
0000a0 e8 90 89 3d 08 d8 8a bd a4 7a d7 3d fe 8f 64 3e
       0.06717092 -0.06779486 0.10521439 0.22320554
0000b0 b6 fb 13 3e 14 d5 df bd 9e c7 13 3e 70 38 37 3d
       0.14451489 -0.10929313 0.14431617 0.044731557
0000c0 7a 01 02 3e 86 08 1c be a4 6a 7d be 0c d1 c5 bd
       0.12695876 -0.15237626 -0.24747711 -0.09659013
0000d0 9c 5b 44 be d6 0e 52 3e d8 78 93 3d cc 13 d4 3d
       -0.19175571 0.20513472 0.072007835 0.103553385
0000e0 fc ec a1 3d 00 82 8e bb 04 59 48 3e 38 e4 35 be
       0.07906529 -0.0043489933 0.19565207 -0.1776284
0000f0 20 f3 80 3c f4 ba 2e be 50 e0 9d 3d e0 52 b0 bd
       0.015740931 -0.17063504 0.077088 -0.08609557
000100 98 e2 9c 3d 78 57 55 bd 06 53 54 3e 50 bb 17 be
       0.07660407 -0.05208537 0.20734796 -0.14817548
000110 8a ad 18 be e6 af 18 be e2 41 66 3e e4 9f aa 3d
       -0.1490995 -0.1491085 0.2248607 0.08331278
000120 10 56 76 3e 4e 45 53 be 98 eb 7d be fe 48 48 be
       0.24056268 -0.20631906 -0.24796903 -0.19559094
000130 5a 35 2c be 6c 61 cf 3d b8 55 b7 3d 76 b7 54 3e
       -0.16817227 0.101260036 0.089518964 0.2077311
000140 74 34 04 be aa 84 2e be f8 d3 07 3e e4 f3 ce bd
       -0.12910634 -0.17042795 0.13264453 -0.10105112
000150 5c 5f 1b 3e f0 fe 72 bd 9a 71 12 3e 60 e7 46 be
       0.15173095 -0.05932516 0.14301148 -0.194242
000160 ba 30 01 be c4 18 9c 3d 38 7b 58 3d f4 89 82 bd
       -0.12616244 0.07621911 0.052851886 -0.06373969
000170 02 98 18 3e fa 07 2e 3e f6 a4 39 be 96 ab 08 be
       0.14901736 0.1699523 -0.18129334 -0.13346705
000180 d2 68 6a 3e f4 c3 ac bd 2c 83 b5 bd 48 b4 77 be
       0.22891548 -0.084358126 -0.0886291 -0.24189866
000190 84 9a 12 be 88 cc 7f 3d 38 29 07 bd aa d3 39 be
       -0.14316756 0.062450916 -0.032998294 -0.1814715
0001a0 40 28 c0 3b 6e de 2e be 86 30 59 be 3a f8 0c be
       0.005864173 -0.17077038 -0.21209916 -0.13766566
0001b0 e6 0d 60 be 44 01 23 be 5e e6 7f 3e 70 68 41 3d
       -0.21880302 -0.15918452 0.24990222 0.04721874
0001c0 1c c7 9d 3d 66 c4 6e be 54 22 28 be 14 6c aa bd
       0.07703993 -0.23317108 -0.16419345 -0.083213955
0001d0 c0 1f 20 3d 86 42 61 be 64 9b dc bd 58 42 19 be
       0.03909278 -0.21998033 -0.10771826 -0.14966714
0001e0 00 9e 35 3a 50 84 be bd f0 ea 8d bc 24 79 2d be
       0.0006928146 -0.0930258 -0.017323941 -0.16940743
0001f0 98 b7 2f be d2 59 15 be 9c 41 af bd 50 0e 4a be
       -0.17159879 -0.14585045 -0.08557436 -0.19732022
000200 f6 a5 56 3e 28 3a 4b bd f6 42 5c 3e b0 87 9f 3d
       0.20961747 -0.04961601 0.21509919 0.07789552
000210 b0 c7 58 be 38 29 31 3e c8 df 8c bd 50 43 c4 bd
       -0.21169925 0.1730088 -0.068786204 -0.09583151
000220 80 7f 54 be 50 81 7e be 18 7d 92 3d c0 af 5f bd
       -0.20751762 -0.24854016 0.07152766 -0.054610968
000230 5c 55 c7 3d 00 17 52 be d6 0f 3e 3e f2 ea 3b be
       0.09733078 -0.20516586 0.18560728 -0.18351343
000240 48 d1 30 bd f0 e1 55 3d 14 29 04 3e e4 ab 4e 3e
       -0.043168336 0.052217424 0.12906295 0.20182759
000250 a0 34 69 3e f2 fc 4a be 88 da 80 3d 78 39 dc bd
       0.22773981 -0.19823053 0.062916815 -0.10753149
000260 00 6e e0 bc 0c 9d 3f be 08 2e 69 3e 2e e4 3b be
       -0.027396202 -0.18712252 0.22771466 -0.18348762
000270 cc d1 08 3e e4 ef b3 3d a0 60 a6 3d ca 67 0a be
       0.13361281 0.0878599 0.081238985 -0.13516155
000280 0c b1 68 3e 40 06 61 3d 38 ba 03 3d ea 99 61 be
       0.22723788 0.0549376 0.032160014 -0.2203137
000290 84 ee d6 3d 00 9f 19 bd 44 8f ea bd ec e3 5b 3e
       0.10494712 -0.03750515 -0.11453107 0.21473664
0002a0 b0 4c 64 3d 86 a3 0d be 52 92 01 be 80 9b 43 bc
       0.055737197 -0.1383191 -0.12653473 -0.01193893
0002b0 c4 f0 0e 3e 54 d5 82 bd 32 11 12 be ac 54 af bd
       0.13959032 -0.06388345 -0.14264372 -0.08561072
0002c0 4c 40 3f be 88 98 b6 3d 80 27 46 3e 3c 02 71 be
       -0.18676871 0.08915812 0.19351006 -0.23536009
0002d0 20 d3 6d 3d 5c 3f 04 3e 68 ae 39 3d f8 55 b6 bd
       0.058062673 0.12914795 0.045332342 -0.08903116
0002e0 00 9e 05 3e 08 88 06 3e 64 73 bf 3d 50 f0 33 bd
       0.13048553 0.1313783 0.09348181 -0.04393035
0002f0 08 94 87 bd d0 18 db 3c d0 e4 34 bd 98 93 98 bd
       -0.066200316 0.02674523 -0.044163525 -0.07450026
000300 10 a3 23 3e 9c 01 5c 3e 20 bf ca bc 38 45 65 bd
       0.15980172 0.21484989 -0.024749339 -0.055974215
000310 80 14 6f 3b a0 90 74 bc 60 2e 76 3d c8 7a 8f 3d
       0.0036480725 -0.014927059 0.06010282 0.070058405
000320 84 83 68 be 84 f2 bc bd cc 95 57 3e c0 73 c7 3d
       -0.22706419 -0.09225944 0.21053237 0.097388744
000330 a0 b9 4b bc 08 58 1a be 42 9f 1c be fa 50 65 be
       -0.012434393 -0.15072644 -0.15295127 -0.22394171
000340 8c e4 a6 bd 90 e7 ac 3d 2c 3b 23 3e 98 63 ec 3d
       -0.081490606 0.084426045 0.15940541 0.115424335
000350 28 4a 62 be e4 f2 19 be b0 9a 21 bd 38 a4 77 3e
       -0.22098601 -0.15034062 -0.039454162 0.24183738
000360 18 21 14 3d d0 97 84 bd 7c d2 d3 3d e8 02 c3 bd
       0.036164373 -0.064742684 0.10342881 -0.09522039
000370 8c b2 25 be e4 d9 3a 3e ac ce e8 bd 28 47 4d bd
       -0.16181391 0.18247181 -0.113675445 -0.050116688
000380 7e ab 7e be 52 55 2b 3e 58 f4 41 3e f4 98 ba 3d
       -0.24870107 0.16731766 0.18940866 0.09111205
000390 90 80 32 be 18 a8 7c be f6 ea 4f be 36 e6 3e 3e
       -0.17431855 -0.24673498 -0.20304474 0.18642506
0003a0 6c d0 f5 3d d6 6c 57 3e 56 1c 06 3e 4c 95 81 3d
       0.12002644 0.21037611 0.13096747 0.06327304
0003b0 80 71 20 bb 86 b0 42 be 6c 55 5b be 02 73 6f be
       -0.0024481714 -0.19012651 -0.21419305 -0.23383716
0003c0 e4 97 d1 3d 28 60 fb bd 28 15 4e bd 50 54 13 be
       0.10234049 -0.122742 -0.050313145 -0.14387631
0003d0 d0 98 3a bd 86 2e 34 be 40 46 27 be 00 d6 a9 3d
       -0.04555589 -0.17595872 -0.16335392 0.082927704
0003e0 20 2a 98 bd 34 0a 1e 3e 0c 41 a4 bd 10 cb 3b be
       -0.0742991 0.1543358 -0.08020219 -0.18339181
0003f0 68 ac 34 bd d0 30 f8 bd 60 a4 9c bd fc b5 73 be
       -0.044109732 -0.12118685 -0.076485395 -0.2379989

_actor.model.time_mlp.1.bias f4 [32]
000000 78 5b 9f 3d 96 4b 43 be 8e fb 21 be 7c d5 54 be
       0.07781118 -0.19071802 -0.15818617 -0.20784563
000010 ce 0e 5f 3e a6 6a 72 be 2e 1e 41 3e e0 b1 09 bc
       0.21782991 -0.23673496 0.18859169 -0.008404225
000020 10 2e ee bc 5c 1f 20 3e b0 4a bd bc 2c 8d 20 3e
       -0.029074699 0.15636963 -0.023106903 0.15678853
000030 82 17 39 3e 04 43 5e be 68 02 c5 3d 48 4f 41 3d
       0.18075374 -0.21705252 0.096195996 0.04719475
000040 08 2c 5c 3d c8 7e 15 3d 40 0c 8c 3d 64 4e f6 bd
       0.05375293 0.03649786 0.06838274 -0.120266706
000050 00 03 03 bd 10 3b 73 3e 54 fe 2b 3e 60 e1 19 bc
       -0.031985283 0.23753 0.16796237 -0.0093921125
000060 a2 c6 70 be c0 84 33 3c 48 54 2e be 52 2d 50 3e
       -0.23513272 0.010956943 -0.17024338 0.20329788
000070 14 6a 1b be 70 de 93 bc f0 44 63 bd 88 39 36 3d
       -0.15177184 -0.018050402 -0.055485666 0.04448846

_actor.model.time_mlp.3.weight f4 [16, 32]
000000 1d 58 2a 3e 40 9a 89 3c 06 ae d1 3d d9 82 0c 3e
       0.16635175 0.016797185 0.102382705 0.1372179
000010 91 23 12 3e a8 0f 7a bd d8 f1 21 bd ea 7a ae 3d
       0.1427138 -0.061050087 -0.03953728 0.08519538
000020 cc 93 45 bd 9a 87 a9 3d 00 30 1e bd b7 8d f5 bd
       -0.048236653 0.08277817 -0.038619995 -0.119899206
000030 8c 5d 93 3d 38 07 de 3c 12 6a a1 3d 17 d7 33 3e
       0.07195577 0.027103052 0.078815594 0.17562519
000040 fe 2c f7 3d 59 9a 2b 3e c0 04 1b 3c 11 b7 1b be
       0.120691285 0.16758098 0.009461582 -0.15206553
000050 e0 fa fd bd 90 e3 e0 bd e3 85 1f be 92 78 b5 bd
       -0.12401366 -0.10980904 -0.15578417 -0.088608876
000060 fc a3 26 be de 02 27 be 7e 56 d8 bd 7a 74 32 be
       -0.16273493 -0.16309687 -0.10563372 -0.17427245
000070 4e 39 de bd 6a 0c 8a 3d cd fa 16 3e d6 62 57 bd
       -0.10850774 0.06740649 0.1474411 -0.05258449
000080 64 9e 52 bd ce 4f c1 3d 8d 9e b2 bd 05 2f ab bd
       -0.051420584 0.0943905 -0.087216474 -0.08358578
000090 0e 10 df 3d f2 b8 1d be a0 12 b1 3c c3 e8 1f 3e
       0.10891734 -0.15402582 0.021615326 0.15616135
0000a0 c8 56 f8 3c 88 e8 44 3d 1e d9 d2 bd 40 d6 1f bb
       0.030314818 0.04807332 -0.10295318 -0.0024389178
0000b0 80 40 1f 3c a0 b6 31 3d 2e ab 8c 3d f1 4a 1d 3e
       0.009719968 0.043387055 0.068685874 0.15360619
0000c0 06 2c 0a be a0 a2 ad 3b 3d e3 b4 bd a7 32 0f be
       -0.13493356 0.0052989274 -0.08832405 -0.13984166
0000d0 00 ee 67 bc 03 57 1f be 9e aa fc 3d c0 b7 a7 3c
       -0.014155865 -0.15560536 0.1233723 0.020473361
0000e0 a8 1f c3 bd 9e 31 bd 3d 5e 52 2b be 49 09 8c bd
       -0.09527522 0.09237979 -0.1673064 -0.068377085
0000f0 58 10 0d bd 3c d2 19 be 57 37 e6 bd a8 5d ec bc
       -0.034439415 -0.15021604 -0.11241024 -0.028853253
000100 df 59 09 3e 55 cd 2e 3e 02 5a e6 3d 96 2e d8 bd
       0.1341319 0.17070515 0.112476364 -0.105557606
000110 76 da ec bd 6f f9 1d 3e 34 0f 80 3d 80 e5 99 3b
       -0.115651056 0.15427183 0.062529 0.004696548
000120 58 fb c3 3c 12 7c 11 be 46 c2 71 bd a3 40 2e 3e
       0.023923561 -0.14207485 -0.059023164 0.17016844
000130 b0 94 32 bd 70 4a 11 bc 55 4e 16 be ea 86 ca bd
       -0.04359883 -0.008867845 -0.14678319 -0.09889014
000140 c0 90 6c bb 3c e2 e0 bd c8 95 b3 bc c0 55 93 3d
       -0.003609702 -0.10980651 -0.021922007 0.0719409
000150 aa 11 31 be 48 0f 57 3d 07 62 ef bd 80 b1 b0 bd
       -0.17291895 0.052504808 -0.11688619 -0.086276054
000160 7a fd 8a 3d a1 ee 0f 3e 88 e5 45 bd 52 a4 94 bd
       0.06786628 0.14055873 -0.0483146 -0.07257904
000170 26 af 23 be 22 b0 ba bd d9 81 1e be 50 b8 25 bd
       -0.15984783 -0.09115626 -0.1547922 -0.040458977
000180 7c c0 13 3d b6 97 29 be e9 0c 1e 3e c6 23 e3 3d
       0.03607224 -0.1656178 0.15434612 0.110908076
000190 48 35 31 be ef eb ac bd 5c 29 6c 3d c4 c4 14 bd
       -0.17305481 -0.08443438 0.05765663 -0.036320463
0001a0 98 d0 9d bc 54 77 a3 bd f5 65 11 3e 04 61 ca bd
       -0.019264504 -0.079817444 0.1419905 -0.098817855
0001b0 79 1d 16 3e 60 e0 3a 3c 28 8e 11 3d 0d 38 0d 3e
       0.1465968 0.011406034 0.03553596 0.13790913
0001c0 28 9b ee bc d2 1f ce bd 58 37 ea bc fb d0 12 3e
       -0.029126719 -0.10064663 -0.028590843 0.14337532
0001d0 66 50 06 be f4 59 24 3d 7d e7 31 be 52 d1 bd 3d
       -0.13116607 0.04012485 -0.17373462 0.0926844
0001e0 f8 c2 85 3d e0 8f f5 3b 6e 62 9b 3d 00 7c 50 39
       0.06531328 0.007493958 0.07587133 0.0001988262
0001f0 ca 55 c8 3d 72 4c 0f be 48 aa d4 bc 0a 9b a0 3d
       0.09781988 -0.13994005 -0.025960103 0.07842071
000200 19 43 34 3e 5e 6b b8 3d f4 a1 03 be ad 38 0b 3e
       0.1760372 0.09004854 -0.12854749 0.13595839
000210 cc 77 21 bd d8 99 1a bd bd 87 24 be d8 f5 e3 bc
       -0.039420888 -0.037744373 -0.16067405 -0.027827188
000220 31 0a 00 3e 08 f0 c9 3c f0 de d2 bd 38 e1 5e 3d
       0.12503888 0.024650589 -0.10296428 0.054414004
000230 dc 2b 68 bd 03 45 25 3e d7 1d 1d be e4 b7 64 bd
       -0.056682453 0.16139607 -0.15343414 -0.055839434
000240 98 c9 2e be ee 94 8e bd 80 43 64 3d 7b 40 2e 3e
       -0.1706909 -0.06962 0.055728436 0.17016785
000250 58 36 f3 3c bf 76 31 3e d4 aa 0d 3d 22 17 d1 3d
       0.029688999 0.17330454 0.034586743 0.1020949
000260 c9 1d 11 3e 7b 51 17 3e 42 a4 ca bd 67 6d 26 3e
       0.14171518 0.14777176 -0.09894611 0.16252671
000270 7e 4f db 3d 1c 48 a9 bd 1d c4 ac bd 4b d4 17 be
       0.10708521 -0.08265707 -0.08435843 -0.14827077
000280 c0 d7 35 3d 9f b9 12 be 1e ef 98 3d 74 a9 64 3d
       0.04439521 -0.14328621 0.07467483 0.055825666
000290 1e 45 1d be cc 4f 45 3d f0 8e 6b bc be 62 a5 3d
       -0.15358397 0.048171803 -0.014377341 0.08075474
0002a0 ea bb cf 3d a0 f5 33 be 3b 03 26 3e 77 cf 17 3e
       0.10143264 -0.17574167 0.1621217 0.14825235
0002b0 9c 0c 90 3d d3 71 25 be e6 53 81 bd 14 d8 51 bd
       0.07033655 -0.16156702 -0.063148305 -0.05123146
0002c0 1c 16 3a bd 76 29 cc 3d 6a a0 83 3d 55 66 0f 3e
       -0.04543124 0.099688455 0.06427081 0.1400388
0002d0 85 97 87 bd 48 ae 73 3d c4 cf 80 3d 0c b7 16 be
       -0.06620697 0.05949238 0.06289628 -0.14718264
0002e0 a4 97 2f be a0 db bb bd 2e d5 f7 3d 22 6c 2a be
       -0.1714769 -0.091727495 0.12101208 -0.16642812
0002f0 bb 90 1d be 72 d0 ca 3d 92 54 c3 3d 75 de 14 3e
       -0.15387242 0.09903039 0.09537615 0.14537986
000300 94 a8 08 be ee 7c 04 be 92 b8 b9 3d 7d 6b 1d 3e
       -0.13345557 -0.12938282 0.09068407 0.15373035
000310 2e 9f d8 3d 40 db e2 3c 38 a3 6e 3d 6f cf 2b 3e
       0.10577236 0.027692437 0.058261126 0.16778348
000320 c3 96 e9 bd ad 5e a4 bd ee 3b fd 3d a0 b8 f7 bd
       -0.11405709 -0.080258705 0.12364946 -0.12095761
000330 f7 a1 c7 bd 7b 24 04 3e 60 76 64 3d 7c ed 69 3d
       -0.09747689 0.12904541 0.055776954 0.05711125
000340 55 72 99 bd c0 e1 1f bb c1 ac 25 3e 89 4d d9 bd
       -0.0749251 -0.0024396032 0.16179182 -0.10610492
000350 00 2c b6 3a 76 2f ac 3d 87 ef f9 bd 41 cd 2f 3e
       0.0013898611 0.0840749 -0.12203889 0.17168142
000360 db e0 b4 bd 88 e0 2d bd f0 e9 43 bd fc ec eb bd
       -0.0883195 -0.042450458 -0.047830522 -0.115198106
000370 bc a0 31 be d6 22 cc 3d 5c 5e 40 3d f8 8a 29 be
       -0.17346472 0.09967582 0.046964988 -0.16556919
000380 8e 04 e9 bd e9 e9 32 3e 46 62 8a 3d 1e 44 91 3d
       -0.11377822 0.17472042 0.067570254 0.070930704
000390 67 9b d8 bd 62 b7 9e bd e0 9a da bc 50 6b 04 bd
       -0.10576516 -0.07749821 -0.026685178 -0.032328904
0003a0 1f 16 f8 bd c0 9c 6e 3c e0 ed 8f 3c e8 5d b7 bc
       -0.12113594 0.014563739 0.017569482 -0.022383645
0003b0 a8 c2 c8 3c 87 7e 8f bd 48 71 3c 3d 16 8a 88 3d
       0.024506882 -0.07006555 0.04600647 0.06666963
0003c0 2c b3 be bd b7 7e 33 be e6 80 bd 3d 14 b8 2c 3d
       -0.09311518 -0.17528807 0.09253101 0.042167738
0003d0 e6 20 b8 bd dd 72 2e 3e 33 bb a3 bd 7e a5 f4 3d
       -0.0899065 0.17036004 -0.0799469 0.11945628
0003e0 2a ac b7 3d a1 c4 17 be 62 7e e9 3d 40 71 26 be
       0.089683846 -0.14821102 0.11401059 -0.16254139
0003f0 22 93 c8 bd d0 6d f1 bc e9 07 f4 bd ef d6 30 3e
       -0.09793688 -0.029471308 -0.11915571 0.1726949

_actor.model.time_mlp.3.bias f4 [16]
000000 20 94 c4 bc aa aa 96 bd 44 d0 3d bd ab 75 18 be
       -0.023996413 -0.0735677 -0.046341196 -0.14888637
000010 63 da 0f be be e5 d3 3d 57 da 1a 3e 2f bf 2c 3e
       -0.14048152 0.10346554 0.15122353 0.16869806
000020 7e af 02 be 3e d0 c3 3d ff 16 e0 bd 56 fa d7 3d
       -0.12762257 0.095612034 -0.10941886 0.10545795
000030 83 9d 02 3e eb 15 0c 3e dd 57 02 3e 52 7b e2 3d
       0.12755398 0.13680236 0.1272883 0.11058678
